P3/Data/model.ckpt (torch, 84887 bytes, 6 tensors)

conv1.weight f4 [16, 1, 5, 5]
000000 47 2c b2 3d 64 88 00 3d ad 9d 00 be fa 55 cf bd
       0.086998515 0.031380072 -0.12560149 -0.101238206
000010 96 f4 bf bc 9a 8e 88 3d 13 f0 72 be d2 84 02 be
       -0.023432057 0.06667824 -0.23724394 -0.1274598
000020 f3 5f 39 be 3f d2 30 be d4 3c b4 bd 51 b7 27 be
       -0.18103008 -0.17267703 -0.088006645 -0.16378523
000030 1b 55 66 be 1c 36 95 3d eb 1e 9c 3c 34 2c 8f be
       -0.22493403 0.07285711 0.019057712 -0.27963412
000040 c0 f3 ad bd 2d e0 c5 bd 35 87 88 3e 41 81 b2 3e
       -0.08493757 -0.09661899 0.26665655 0.34864238
000050 0c 75 3b 3e cc ec 0a 3e 5b 90 8d 3e 74 7a 5d 3e
       0.18306369 0.13566893 0.27649197 0.21628743
000060 09 08 90 3e ca ae b7 be 33 85 46 3b 9c 6d 90 3e
       0.2813113 -0.3587554 0.0030291795 0.28208625
000070 1f 65 20 bd 68 ef 24 3b f2 4f c5 3d 93 4b ab 3e
       -0.039158937 0.0025167111 0.09634389 0.33456096
000080 99 e6 4b 3e aa 1f f4 3c a8 8a b7 3c 0f 25 6f 3e
       0.19912185 0.029800255 0.022404984 0.2335398
000090 0c 0b b4 3e ca 5a 28 be fe e5 ab be 22 dc 7d bd
       0.35164678 -0.16440883 -0.33573908 -0.061977513
0000a0 e4 2d 72 3e de b9 0b be 39 f1 38 be bd ee 22 be
       0.23650318 -0.13645121 -0.18060769 -0.15911384
0000b0 bd da 07 be c7 87 09 bc f6 a7 74 3d 00 4c 86 3d
       -0.13267036 -0.008394188 0.059730493 0.065574646
0000c0 ba ba 4e be a5 2c 03 3e a7 42 7d be 7d 70 1b bd
       -0.20188418 0.1281 -0.24732457 -0.037949074
0000d0 44 5c 6e bc 72 32 ab 3e e1 7f 2e 3e 65 46 c8 3d
       -0.014548365 0.33436924 0.1704097 0.09779052
0000e0 4c 61 56 3e 59 34 88 3e 9b 98 e2 bd 06 d1 9f be
       0.20935553 0.26602438 -0.110642634 -0.3121416
0000f0 e0 fe 12 3e ed 76 8d 3e 7a 5e 39 3e 09 13 c4 bd
       0.1435504 0.27629796 0.18102446 -0.09573943
000100 5d 00 0d be 64 23 ea bd 35 39 12 3e 1b b6 3c 3d
       -0.1376967 -0.114325315 0.14279635 0.046072107
000110 9f 98 99 be b0 72 9d be d6 49 7a bd 40 85 51 3e
       -0.29999253 -0.30751562 -0.06110557 0.20460987
000120 1e 06 2e 3c b7 87 91 be 6c 9c 84 3b 0b 69 1d 3c
       0.010621576 -0.28423855 0.0040469673 0.009607564
000130 fd 01 4b bd 89 4a 8f be 83 8c 0a be db 06 0d be
       -0.049562443 -0.27986553 -0.13530163 -0.13772146
000140 32 18 81 3e a4 a3 5d 3e 3e 90 63 be a1 6a 08 be
       0.25213772 0.21644455 -0.22222993 -0.13321926
000150 2c c5 21 bd 67 cb 87 bc 56 f6 9d 3e a6 a4 a2 3e
       -0.03949468 -0.016576482 0.30852002 0.31766242
000160 0c b3 c4 3e 6f 01 53 bd 3b 61 6c 3d 05 f6 8a 3e
       0.38417852 -0.05151504 0.057709914 0.27140823
000170 ec 83 1c 3d 26 b4 14 3e 46 30 87 3e 58 49 9a be
       0.038211748 0.14521846 0.26404017 -0.30134082
000180 21 dc 51 be 82 6a 9e bd 65 46 d9 bd da 33 d4 3d
       -0.20494129 -0.077351585 -0.1060913 0.103614524
000190 49 31 e2 bd 55 50 03 3e 06 ed 55 3d 7b 07 20 3d
       -0.11044557 0.12823613 0.052227996 0.039069634
0001a0 05 b5 81 be 3e f1 59 be 78 d1 24 3d 77 96 11 3e
       -0.2533342 -0.21283433 0.040238827 0.14217554
0001b0 b1 c1 39 be 29 bd a5 bd d7 24 4b 3e 32 4a 48 3e
       -0.18140294 -0.0809272 0.19838272 0.19559553
0001c0 c5 da 63 3d 9e 69 0f 3b 23 23 72 be 90 b0 8f 3e
       0.055628557 0.002188302 -0.23646216 0.28064394
0001d0 e5 3c 8f 3e 76 30 62 be 81 62 e0 bc 9a 89 da 3d
       0.27976146 -0.22088799 -0.02739072 0.10670777
0001e0 1b 60 01 3e fe 95 e0 3d 4d 19 7d 3c 4d b0 8d bd
       0.12634318 0.10966109 0.015447927 -0.06918392
0001f0 5d 45 46 be ec e8 8d bd 03 84 12 bc 6d ac 1e 3e
       -0.19362397 -0.06929192 -0.008942607 0.15495463
000200 96 1b 17 be f1 45 ec bd 9e 63 29 3e 03 64 86 bc
       -0.14756617 -0.11536778 0.16541907 -0.016405111
000210 d4 f5 96 3d 59 41 26 be 9d 35 39 be e4 49 89 bd
       0.07371107 -0.16235866 -0.18086858 -0.06703547
000220 b0 0a 44 be 95 f5 1b 3e cd b6 eb 3d 2e 57 17 be
       -0.19144702 0.15230401 0.11509476 -0.1477935
000230 44 e2 49 be 32 ad fb bd 67 2b 16 be f5 c7 a5 3e
       -0.1971522 -0.12288894 -0.14664994 0.32379118
000240 d7 ab 7f 3d 5e 8e 95 3e c5 78 27 3e cc 9c 67 3d
       0.06241974 0.2921018 0.16354664 0.056546018
000250 5b 00 85 bc 19 e6 6d 3e 05 d0 54 bd 62 30 7c be
       -0.016235521 0.23232307 -0.051956195 -0.24627832
000260 8f 6e 03 be 22 d8 84 be 4f f7 3b be 57 2c 86 3d
       -0.12835144 -0.25946146 -0.1835606 0.06551426
000270 db eb 2d 3e 37 59 fb bc 69 95 bf 3d cd b0 30 be
       0.16984503 -0.03068219 0.093546696 -0.17254944
000280 6e 2b 79 3e 74 42 84 3e 30 fb 8f 3e 3b 89 bd bc
       0.24332973 0.2583195 0.28121328 -0.023136726
000290 04 16 ed 3d f1 11 2f be 69 7d b3 bd 39 ab 24 3e
       0.11576465 -0.17096688 -0.087641545 0.16080941
0002a0 53 a5 05 3d 60 ad 70 3e 6c 72 05 3b d5 e2 45 be
       0.03262837 0.23503637 0.002036239 -0.19324811
0002b0 41 87 34 bd df 93 07 be 63 94 ff bb b8 8e 98 3e
       -0.0440743 -0.13240002 -0.0077996715 0.29796386
0002c0 fe 6f a5 3e 2e 52 1e 3e 04 a8 b8 3d 22 da 23 3e
       0.32312006 0.15461037 0.090164214 0.1600118
0002d0 cd 87 70 3e ca 67 b2 3d 69 ee 8c 3e 92 7b bc bd
       0.23489304 0.087112024 0.27525643 -0.09203257
0002e0 5a f2 66 3e cc 52 0a be 70 04 41 be 30 30 b6 bd
       0.22553387 -0.13508147 -0.18849349 -0.0889591
0002f0 99 84 77 be 49 b6 12 be c5 58 8b be 6c 53 8b be
       -0.24171676 -0.14327349 -0.27216163 -0.27212083
000300 3c 44 2e be 3b de 7d be 3e d4 15 be 71 fe bd 3d
       -0.17018217 -0.24791805 -0.14631745 0.092770465
000310 6e 2b 49 3c e6 39 61 be 48 96 44 be ba b9 09 3e
       0.012278421 -0.21994743 -0.19197953 0.13449755
000320 86 1b 08 3e df b9 0f be da d3 95 3d a7 2e 05 be
       0.1329175 -0.14035748 0.07315798 -0.13006078
000330 0f 30 35 bd 65 b2 0b be c8 46 a0 3e 8c 0a d0 3d
       -0.044235285 -0.13642271 0.31304002 0.10158262
000340 21 47 39 3e 30 4f 91 3e 9c 4a 81 3e 46 e9 83 3d
       0.1809354 0.28380728 0.25252235 0.06440978
000350 72 1a 8f 3e f2 ff ab 3d cb 8d 3a 3d fb bc 8c be
       0.27949864 0.08398427 0.04554538 -0.2748793
000360 a1 a7 44 bd f9 6b 97 be 48 67 c1 bd ec ca 66 3d
       -0.048011426 -0.29574564 -0.094435275 0.056345865
000370 0b 1f 98 be 82 bf 83 bd 90 10 01 be 8a b6 d4 bd
       -0.29711184 -0.064330116 -0.12603974 -0.10386379
000380 41 f4 0c be 5c 34 0d bd 3e 29 1c be 97 ff 84 3e
       -0.1376505 -0.034473762 -0.15250108 0.2597625
000390 47 2d 64 bd 39 26 b9 bd d9 2a 81 3e 66 91 86 3e
       -0.055707242 -0.090404935 0.25228003 0.26282805
0003a0 57 b7 0b 3d 88 ef 96 3d 77 e7 05 3e 5d 18 50 3e
       0.034110393 0.07369906 0.13076578 0.20321794
0003b0 5d ed 65 3e 7f 31 3e 3e b9 ae 29 bd b5 30 26 be
       0.22453828 0.18573569 -0.041426394 -0.16229518
0003c0 45 70 00 be 0c 97 1f be d5 7f 9d be 9c c4 20 bc
       -0.12542827 -0.15584964 -0.3076159 -0.0098125
0003d0 e2 20 4e 3e 91 7b 8b be 84 ba 98 bd 0a dc 2e be
       0.20129731 -0.2724271 -0.0745745 -0.17076126
0003e0 73 58 ab bd 86 e9 6c 3d 97 a2 3f bd dd 58 1a 3e
       -0.0836648 0.057839893 -0.046785917 0.15072961
0003f0 b4 ca 77 3e 1f 85 ae be ae 24 ab be 58 1d 58 be
       0.24198419 -0.34085938 -0.33426422 -0.21104944

conv1.bias f4 [16]
000000 97 76 49 3d d3 49 41 3e ec 9c 85 bc ae 1e 24 3e
       0.04918536 0.18875818 -0.016310178 0.16027328
000010 67 6a 0b 3e b4 3b 12 3e 96 fc 02 3e 94 3b ae 3c
       0.13614808 0.14280587 0.12791666 0.021268643
000020 2b 15 91 bd 2b 89 22 3e 10 77 51 3d ab f0 05 bd
       -0.070841156 0.15872638 0.051138937 -0.032700222
000030 d9 00 ee 3d 8a 57 b7 3d d1 39 40 3d a2 4c 2f 3d
       0.116212554 0.089522436 0.046930138 0.042797692

conv2.weight f4 [32, 16, 3, 3]
000000 d9 a0 44 bb ea 82 21 bd 75 df 9d 3c 97 77 be bd
       -0.00300031 -0.03943149 0.019271592 -0.09300154
000010 18 1f 7d 3b ce 41 0d 3e 42 66 44 3d fb aa 4a bd
       0.003862327 0.13794634 0.047949083 -0.049479466
000020 52 6c 14 bd d6 05 9a 3d dc 45 1d 3e 4c b3 b9 3d
       -0.036236115 0.07520644 0.1535868 0.09067401
000030 7d ee 46 3b 09 8a 05 3e 13 d7 81 3d f0 21 98 bd
       0.0030354552 0.13040937 0.0633985 -0.07428348
000040 1a 46 0b be a6 45 6c bc d9 ad 3c 3d f3 96 4f 3e
       -0.1360096 -0.014420902 0.04606423 0.20272426
000050 14 a5 c9 bc b8 f5 44 bc 28 8d b2 3c 8b 47 12 be
       -0.024614848 -0.012021475 0.021795824 -0.14285104
000060 fd 46 d1 bd 08 9c 1a be 41 60 83 bc a9 af 9d 3d
       -0.10218618 -0.15098584 -0.016037108 0.0769952
000070 99 c7 a6 3d 81 49 6a bd 9b 79 4e bd ef c8 80 bd
       0.08143539 -0.057199005 -0.05040894 -0.06288325
000080 7f 4f 21 be ca 0f 91 bd e2 91 45 bd d9 ca 9e bb
       -0.15752982 -0.0708309 -0.048234828 -0.0048459587
000090 e6 66 23 3e ef 92 2a bd 82 36 3e bd 86 54 44 3b
       0.15957221 -0.041644033 -0.0464387 0.0029957606
0000a0 03 b5 a0 3a 02 09 02 bc c8 bc 05 bd 32 70 84 bd
       0.0012260977 -0.007936718 -0.03265074 -0.06466712
0000b0 58 22 43 3d 95 3c 00 bd e3 4d 0c be 0a 3e 5d be
       0.047640175 -0.031307776 -0.13701586 -0.21605697
0000c0 de 1b 47 be 2c dd b9 bd 8c cc 94 bc 8c 2d 87 3c
       -0.19444224 -0.09075388 -0.018163942 0.01650121
0000d0 b1 c4 0b be 0f a2 52 bd 27 a5 c1 3d 64 69 65 bd
       -0.1364925 -0.051424082 0.094553284 -0.05600871
0000e0 1f 96 1d be d4 cd 24 bb ad 39 70 bd c5 ce f2 bd
       -0.15389298 -0.0025147097 -0.058648754 -0.118558444
0000f0 c2 0f 06 3d 05 ee 71 3d 3e f6 1d 3c e1 f9 68 3d
       0.03272987 0.059064884 0.009641228 0.056878928
000100 dc 69 c2 3c 0e a1 23 bc 06 a4 82 3d 8f e6 b9 3d
       0.023732118 -0.009987129 0.06378941 0.09077179
000110 f0 a7 34 bd 84 67 fd 3d 2e 50 79 3d 99 51 a0 bc
       -0.04410547 0.1237326 0.06086748 -0.019570159
000120 1d f3 13 3e af 80 23 3e bd eb 1d 3e d5 c2 06 3e
       0.14448209 0.15967058 0.15421958 0.1316026
000130 44 87 8b 3d e4 41 9f bd 38 20 4d bd a3 8c 40 be
       0.06812909 -0.077762395 -0.050079554 -0.18803649
000140 a6 4e 29 be df 7d 58 3d 74 e9 1b 3e 2f 96 6c 3d
       -0.16533908 0.052854415 0.15225774 0.057760414
000150 c3 a5 80 3d a4 72 c1 3d 94 f7 7a 3d 8d ca 02 3d
       0.062816165 0.09445694 0.061271265 0.03193145
000160 78 29 85 3d 40 1f 99 bd aa 74 40 3d 36 38 22 be
       0.0650205 -0.074766636 0.04698626 -0.15841755
000170 65 82 ff bd f1 57 0b be 08 05 26 be f2 c1 db bd
       -0.12476043 -0.13607766 -0.16212857 -0.107303515
000180 84 23 38 be 1d bf c4 bc 86 34 9c 3d f3 06 53 3d
       -0.17982298 -0.024016911 0.076272056 0.0515203
000190 51 cb b7 3d 47 d5 65 bb bd 29 41 3e 20 aa 72 3d
       0.089743264 -0.003506975 0.18863578 0.059244275
0001a0 ff 09 b9 bd c7 6d 40 bd f9 e6 1e be ef 18 b0 bd
       -0.0903511 -0.04697969 -0.15517797 -0.08598506
0001b0 fc cb 95 3d 94 8d 97 3d d9 54 eb 3c f3 3e 9b 3b
       0.073142976 0.07400051 0.028726982 0.0047377287
0001c0 e2 65 27 3b 34 e6 dd 3d c8 f4 ab bd 91 e8 de 3d
       0.0025542905 0.108349234 -0.08396298 0.10884202
0001d0 de cf e9 3d 79 7b e2 bd 9b 31 a4 bd eb 4b c9 ba
       0.11416601 -0.11058707 -0.08017274 -0.0015357708
0001e0 9e 77 1b bd fe a0 3f 3d 67 ea b6 bd ff 6a 44 3d
       -0.037955873 0.046784393 -0.089314274 0.047953602
0001f0 4a bc 1b 3d b8 0b 7d bd 7a fc d8 3b 2c d4 19 3e
       0.038021363 -0.061778754 0.0066218944 0.15022343
000200 ae d8 89 bc 63 9e 54 3d 2e 83 29 3c 9a 35 a7 bd
       -0.016826954 0.05190886 0.010346217 -0.081645206
000210 fc 6d ee bd a5 c2 39 be 5b 4f d1 bd 1a 8d 61 bd
       -0.116420716 -0.18140657 -0.10220214 -0.055066206
000220 fa 43 a4 bc e6 7e 40 be a6 4e 4b bd 6b 9a 53 be
       -0.020051945 -0.18798408 -0.049635552 -0.20664375
000230 d4 97 fe bd fe 45 66 3d f9 6c e2 bd e4 b3 85 3b
       -0.12431303 0.056219094 -0.11055941 0.0040802825
000240 0e 2f b1 3d 8c b2 a7 3d 65 6d 30 3d 1b 84 00 3e
       0.08651553 0.08188352 0.043073077 0.12550394
000250 ca 0c bc bd 83 4f 17 3d a0 af 4b 3d 5a 94 1f bd
       -0.09182127 0.036941063 0.049728036 -0.03895984
000260 22 5f 7e 39 98 fd ec bd 97 31 43 3d 52 d2 15 3e
       0.00024258767 -0.11571807 0.047654714 0.14631012
000270 58 85 bb bd c7 fe ee 3d bf bc ad 3d cf 47 8d 3d
       -0.09156293 0.11669689 0.08483266 0.06898462
000280 b6 dd 51 3e e6 fa 21 3e c2 60 90 bd 17 99 10 3e
       0.20494732 0.15818366 -0.07049705 0.14120899
000290 0e a2 fe 3d da 52 01 3e c5 8b 6c 3e 57 cf e6 3d
       0.12433253 0.12629262 0.23100193 0.11270016
0002a0 ea 74 d9 3d 68 10 12 3e 2e 5d cc 3d 11 43 73 bc
       0.10618003 0.14264071 0.0997871 -0.014847533
0002b0 b9 e7 2d be 8e 0d 91 bc 4d b9 31 be 38 9d 1b be
       -0.16982926 -0.017706659 -0.17355843 -0.15196693
0002c0 55 c2 ac 3c 33 a9 ee bd 54 fa a1 bc 40 8c fa 3b
       0.021088758 -0.11653366 -0.019772686 0.0076461136
0002d0 a4 12 01 be 26 d8 80 3c 77 ea 0b 3e d4 33 1d 3d
       -0.12604767 0.015728068 0.1366366 0.038379505
0002e0 62 b0 ff 3c 9c 93 8d 3b ec 48 19 3d 57 d0 1e 3e
       0.031212036 0.004320575 0.03742306 0.15509163
0002f0 ea 4b eb 3d 07 ba 7a 3c a9 c8 74 3d 80 f1 b7 bc
       0.11489089 0.015303141 0.059761677 -0.022454023
000300 6a 7b 95 bb f8 33 11 bc 0b 6f 8f bd 6d 2a 56 3d
       -0.0045618312 -0.008862488 -0.07003602 0.052286554
000310 a4 47 f3 3d 90 3e 04 3d ee d8 c3 bc 3f 1b ce bc
       0.11878899 0.032286227 -0.023907151 -0.025159476
000320 e5 f6 84 bd 39 e6 b3 bd 2c 22 94 bd 0f a7 9e bd
       -0.06492404 -0.08784146 -0.0723308 -0.07746708
000330 b5 a4 fe bd f9 32 88 3b ee 84 4c bd 32 5f 61 bd
       -0.12433759 0.004156467 -0.04993146 -0.055022426
000340 89 d7 10 be 25 09 85 bc ad 27 e6 bd 3d a1 e1 bc
       -0.1414472 -0.016239712 -0.11238036 -0.027542705
000350 06 82 1d 3d d1 26 0b be bd a8 36 bd 9e 9c c0 3d
       0.03845408 -0.13589026 -0.044594515 0.09404872
000360 f8 0f cb bd 93 86 01 be 39 78 a2 bc bf d2 0a be
       -0.09915155 -0.12648992 -0.019832717 -0.13556956
000370 89 f6 4b be 79 a2 03 be 6f ff 44 be 1d 7e 0c be
       -0.19918264 -0.12854947 -0.19238065 -0.13719983
000380 5b 1c a6 bd 85 f2 11 3d 1f 1d 66 bd cc 8a 0a 3e
       -0.08110877 0.035631675 -0.056180116 0.1352951
000390 ec 89 f1 bc 8d 7d 16 bd fa 77 87 3b 29 d7 89 bd
       -0.029484712 -0.03674083 0.0041341754 -0.06730492
0003a0 25 d0 36 3d 7a d5 89 3c 58 d8 96 3d 8a d5 4d 3d
       0.044632096 0.016825426 0.07365483 0.050252475
0003b0 5c 5d 44 bd 92 89 e6 bb 4d 17 42 3d 14 d5 98 bd
       -0.047940597 -0.0070354426 0.047385503 -0.074625164
0003c0 c0 de 17 3b ea 1a 89 3d 06 74 c3 3d 83 3d aa bc
       0.002317354 0.066945866 0.09543614 -0.020781284
0003d0 c6 8a e3 bd fe f3 1d bc ce bb 14 be 95 f6 57 bd
       -0.11110453 -0.009640692 -0.14524767 -0.052725393
0003e0 4c f1 e8 bd 5b b0 80 bd df 41 c7 bd de 24 95 bd
       -0.11374149 -0.06283637 -0.09729361 -0.072824225
0003f0 3d 6c 3d 3e 7b 37 7f 3d 64 ef 49 3d 5e 37 38 3e
       0.18498321 0.06230877 0.049300566 0.17989871

conv2.bias f4 [32]
000000 76 4f 7f 3d 4e 02 76 3d 85 96 92 bd 70 45 ba bd
       0.06233164 0.06006079 -0.071576156 -0.090952754
000010 20 a9 4b 3d ad 7f 22 bc d5 9f 51 bd 2c 7d 51 bb
       0.049721837 -0.009918136 -0.05117782 -0.0031965477
000020 a1 88 97 bd 84 32 2a 3d 29 4c af bd 8b 64 86 bd
       -0.07399107 0.04155208 -0.08559448 -0.06562146
000030 b4 93 91 3d 66 fd 78 3c f7 c8 1a 3c ea db 32 bd
       0.0710825 0.015197134 0.009447328 -0.043666758
000040 8c d9 5d 3d 48 da 0a 3d ef 1a 3f 3d 84 7f 71 bd
       0.054162547 0.033899575 0.046656545 -0.0589595
000050 c7 52 bd 3c f9 6f 66 bd 9c 7a 8a bd 97 5d 1a bc
       0.02311076 -0.05625913 -0.06761667 -0.009421728
000060 32 b6 42 bd 24 1c aa 3d 2a 92 ec bc 3b 6e 36 3d
       -0.047537036 0.08306149 -0.02887829 0.044538718
000070 cc c4 81 3c 0f 87 a5 bc ba c2 49 3d d5 2d af 3b
       0.01584091 -0.020206003 0.04925797 0.00534604

fc.weight f4 [10, 1568]
000000 c7 ff 1b 3c 6e ea 96 3c f2 b5 0a 3d 51 99 00 3d
       0.009521431 0.018422332 0.033864923 0.031396214
000010 5a 9c 2b 3d e1 22 3c 3d 25 60 79 bb 76 3a 14 3d
       0.041897155 0.0459317 -0.0038051691 0.036188565
000020 a7 76 53 bd e1 97 35 bd e2 85 9c 3c 1a 4e 68 bd
       -0.051626828 -0.044334296 0.019106809 -0.05671511
000030 2f ea c1 bd 01 7b 49 bc 7c 61 42 3b 51 88 f3 3a
       -0.09468495 -0.012297393 0.0029660156 0.0018580054
000040 87 b5 2b 3d 90 ff c5 bd 82 b0 32 bd 88 30 f5 bd
       0.041921165 -0.09667885 -0.043625362 -0.11972147
000050 12 25 c3 3b ab 90 40 3d 4d 0b 1c 3d 54 07 5b bd
       0.005955347 0.047012966 0.038096715 -0.053473786
000060 21 31 36 bb 3a ac 89 bb f4 e7 19 bd 50 7e b3 bb
       -0.002780028 -0.004201439 -0.037574723 -0.005477704
000070 02 1f 14 3d 1d e6 4c 3c 3a b9 a2 bd fb fd e2 bd
       0.036162384 0.012506035 -0.079454854 -0.11083599
000080 d2 24 15 3c a9 cc 81 3d 99 13 c9 3c a9 4c a7 3c
       0.009103017 0.06337864 0.024545478 0.020422297
000090 b4 1c 98 b8 27 97 a1 bd 3f 54 91 bc ed fb 78 3c
       -7.253271e-05 -0.07890158 -0.017740367 0.015196783
0000a0 c0 b8 40 3c 1c 64 b4 3b 4f 1e 52 b9 b6 c8 1a bc
       0.011762798 0.005505098 -0.00020038451 -0.009447267
0000b0 b6 96 04 bb 32 2e 92 39 0d 8d 9d 3a ff 3b 02 bd
       -0.0020231432 0.00027881708 0.0012020186 -0.031795498
0000c0 02 61 f1 3c 88 fa 47 bb 6c e5 17 3c d0 a5 5f bd
       0.029465202 -0.0030514318 0.009271007 -0.05460149
0000d0 25 f1 49 bd b8 da d6 bc a5 ad 2a bb 48 f1 ab bc
       -0.04930224 -0.02622734 -0.0026043442 -0.020989075
0000e0 71 9a ce 3c 7a 14 e9 3b 35 c3 75 3c cd e8 b4 bc
       0.025220128 0.0071130367 0.015000154 -0.022083664
0000f0 3c a8 ee bc cb f5 cd bc a4 ef d0 bc 76 a0 85 bc
       -0.029132955 -0.025141617 -0.025504895 -0.016311865
000100 01 2d 7b 3d 95 f0 21 3c c2 45 84 bc c2 9c 74 bc
       0.061322216 0.009884019 -0.016146544 -0.014929952
000110 45 ae ad 3c 4a e3 0f 3d e2 2d d4 bc 86 16 5b 3d
       0.021201262 0.03512887 -0.025900785 0.053488277
000120 01 e2 95 3d cb f9 16 3d d8 b4 98 bc 89 91 46 3c
       0.073184974 0.036859315 -0.01864092 0.012119659
000130 39 cf c2 3d 23 e0 2d bc 69 fd 95 3d 0c 98 36 3d
       0.09512181 -0.01061252 0.07323725 0.044578597
000140 03 4e 47 bd 76 6a 20 bc ab a8 60 3c 85 e7 88 3d
       -0.048658382 -0.009791007 0.013712089 0.06684784
000150 d0 8e c9 3c 6a af ac 3d ee 28 68 3c 84 cd a6 bd
       0.024604231 0.08431895 0.014169915 -0.08144668
000160 35 16 f9 bc a7 07 6c bd ab 8b 4d bd dc 0b f0 3b
       -0.030406097 -0.057624485 -0.050182026 0.0073256325
000170 23 81 c1 bc 7a f8 21 be 41 6e e2 bd ef 9f 22 be
       -0.023621147 -0.15817443 -0.110561855 -0.15881322
000180 27 1a ff bd 77 11 d3 bc 6b f0 b6 3c 7f f2 97 3c
       -0.1245616 -0.025765164 0.022331437 0.018548248
000190 ba 56 8e bc e8 28 9a bb c4 83 84 3c 1b 1a a2 3c
       -0.017375339 -0.0047045834 0.016176112 0.019787839
0001a0 23 75 57 bc c3 08 05 bd 04 07 6c bc 95 11 27 bd
       -0.013150486 -0.03247906 -0.0144059695 -0.040788252
0001b0 ba 03 01 3b d0 e7 45 3c 00 97 a7 39 fe c3 4b bd
       0.001968606 0.012079194 0.00031965226 -0.04974746
0001c0 50 0d 24 bc a9 e8 74 bc a4 f6 7e 3d 16 78 34 bd
       -0.01001294 -0.014948049 0.062246934 -0.044059835
0001d0 0e d0 88 3d db b3 fd 3c 38 6a 14 bd 57 fd dc 3c
       0.06680308 0.03096955 -0.03623411 0.02697627
0001e0 ac 0c 41 3c ae c4 13 bc d5 c3 c4 bc c0 71 04 3c
       0.011782806 -0.00901906 -0.024019161 0.008083761
0001f0 2d 27 10 3d 9a 35 e2 3a 34 f2 11 3c cc 6a 82 3c
       0.03519361 0.0017258406 0.008907843 0.015920065
000200 32 b4 96 bc 0e 02 2d bd 9a 15 14 3c 7d 1f ca b9
       -0.01839647 -0.042238288 0.009038353 -0.00038551903
000210 82 71 12 3c 7a ea de 3c e9 42 0a 39 6e cc 2c 3b
       0.008938195 0.027211417 0.00013185632 0.0026366967
000220 83 ca 11 bd c3 29 b2 bd e4 05 31 bd 64 26 8e bc
       -0.03559352 -0.08699372 -0.04321851 -0.01735229
000230 6a f9 9c bc 90 82 dc bc 20 55 46 bc 55 8d a0 3b
       -0.019161899 -0.026917726 -0.012105256 0.0048996606
000240 f0 4c ad bc 69 b4 e8 bd 68 7c 12 bd 39 60 96 bc
       -0.02115485 -0.113625355 -0.035763174 -0.01835643
000250 f9 c8 f0 bc 04 f2 17 bd bc f8 71 bd e0 35 d5 3b
       -0.029392706 -0.03709604 -0.059075102 0.0065066665
000260 1c e0 69 3c 29 f0 72 bc f1 aa a1 bc ac 42 1b bd
       0.014274623 -0.014827766 -0.019734832 -0.03790538
000270 ce 14 3b bd 43 63 87 bc 95 df 18 3d e8 41 3f 3d
       -0.045674138 -0.016526824 0.0373226 0.046693712
000280 66 49 61 bc 7a 46 cf bc e4 45 c4 bd 2c 67 73 bc
       -0.01375041 -0.02530216 -0.09583643 -0.014856141
000290 c5 8f f0 3c 45 55 17 3d 52 8e 5a 3a d6 8b ea 3a
       0.02936543 0.036946554 0.00083372474 0.0017894458
0002a0 28 62 bf bb dd 0d b9 bb 77 8b f6 3c 90 03 0a bd
       -0.0058405586 -0.0056474046 0.030095799 -0.033694804
0002b0 eb d5 26 bd dd 79 22 3d 25 98 f0 3c 84 0f bf 3c
       -0.04073135 0.039667 0.029369423 0.023322828
0002c0 3a 47 62 ba d0 31 33 3d b2 09 cd bb 35 d8 42 bd
       -0.00086318294 0.043748677 -0.0062572593 -0.047569472
0002d0 18 62 36 3a c4 e6 e5 3c 39 e7 f2 3c 3c 27 37 3c
       0.0006957366 0.02806414 0.029651271 0.011178788
0002e0 f1 07 fd 3c be f3 cb 3c a6 9a 15 bd 15 2b 53 bc
       0.030887576 0.024896499 -0.036524437 -0.0128886895
0002f0 6c fa e6 39 6c 1b b0 3c f5 85 8c bc 6b 01 69 bb
       0.00044055597 0.02149745 -0.01715372 -0.0035553824
000300 a9 c5 9c 3c 0e ba 65 3c 29 1f 26 bd 4d cb 0b bd
       0.01913722 0.01402141 -0.04055706 -0.03412943
000310 84 10 05 3c f0 6c 2c ba 1d a9 23 3c 34 76 ea 3c
       0.008121613 -0.0006577512 0.00998905 0.028620817
000320 02 31 69 3d d8 8c c0 3c f9 07 fd 3c c5 79 07 bc
       0.056931503 0.02350466 0.03088759 -0.008268778
000330 93 a6 98 bd f6 3f dd bd 8e 84 c3 3c 0c d6 63 39
       -0.074536465 -0.10803215 0.023866918 0.00021728146
000340 7a fb 00 bd 0b 99 97 bc 97 c2 09 bc 8c d8 01 bd
       -0.031489827 -0.018505594 -0.00840821 -0.031700656
000350 b8 86 24 bc 16 74 09 3d b1 d8 c9 bc 03 b1 fc bc
       -0.010041885 0.033557974 -0.02463946 -0.030846125
000360 d6 c5 3c bd a1 fa 0e bd bc ce 44 be d4 b1 68 bd
       -0.04608711 -0.034906987 -0.19219488 -0.056810215
000370 a2 73 8a bd 53 a3 85 bd 7c ae 67 3c fe 98 a4 3b
       -0.067603365 -0.06525292 0.014140721 0.005023121
000380 5c 00 78 bc 75 16 f3 3b 1b 35 23 3c c5 c4 00 bc
       -0.015136804 0.0074184486 0.009961392 -0.0078594135
000390 55 5e 06 3d cb 89 58 3d 49 6d f1 3c 1b 0d 65 bc
       0.032804806 0.052865785 0.029471057 -0.013980175
0003a0 7b 86 09 bc 75 af 72 3d 2a ca 4c 3c ce 19 c5 3c
       -0.008393879 0.05924936 0.012499372 0.024060156
0003b0 9b b1 68 3c 8e 7d bf 3c 96 93 5d bc f8 05 27 bc
       0.014202501 0.023375299 -0.013523957 -0.010194294
0003c0 93 f6 b7 3b b2 5f 87 3d 75 25 6b 3c f9 f9 48 bd
       0.0056141107 0.06610049 0.014352192 -0.049066518
0003d0 2f 28 29 bc 4b 75 3f bb 6a 87 56 3c c0 9c a1 bc
       -0.010324522 -0.00292142 0.013093809 -0.019728065
0003e0 a7 b6 6e bc 41 76 ff 3c fb fa f7 3b fa c4 02 3d
       -0.014569915 0.031184318 0.007567761 0.031926133
0003f0 d7 c4 d5 3c 54 c4 91 bc 01 2c a1 3c aa 59 1c 3c
       0.026094837 -0.017793812 0.019674303 0.009542862

fc.bias f4 [10]
000000 c6 46 12 3a 31 1a 92 ba 93 dc 40 3c 65 44 b1 3b
       0.0005580004 -0.0011146722 0.011771339 0.0054097646
000010 35 1f 25 bc b6 fb 05 bc dc 37 0a 3c 73 39 b6 bc
       -0.010078241 -0.008177688 0.0084361695 -0.02224419
000020 8b 12 05 3b df 73 b0 bc
       0.0020305242 -0.021539627
