P3/Results/base_model.ckpt (torch, 107567 bytes, 6 tensors)

conv1.weight f4 [16, 3, 5, 5]
000000 8a 3f 4c be 9e 38 8a be 83 b8 40 be 61 d3 2a be
       -0.19946113 -0.2699632 -0.18820386 -0.16682197
000010 c0 40 11 be 7f 63 75 bd be d5 f2 bd 26 cc 2a bd
       -0.14184856 -0.05990934 -0.11857174 -0.041698597
000020 82 1f b1 3c 8a c3 f8 bd 09 ac a1 bc f2 3a 2d 3e
       0.02162147 -0.12146671 -0.019735353 0.16917017
000030 f5 cb b2 bd 81 3f 15 3d da ff 17 3e 2c 58 7c bc
       -0.08730308 0.036437515 0.14843693 -0.015401881
000040 ee c7 11 3e 3c d4 72 3c 36 ac a3 bb 39 9d 22 3e
       0.14236423 0.014821108 -0.0049948944 0.15880288
000050 eb ac 8a 3c 9e 72 1e 3d 4a 12 35 3e 05 13 33 3d
       0.016928157 0.038683526 0.17682758 0.04371931
000060 27 d9 23 3e da 87 1d be 57 c6 bf bd fa 64 87 be
       0.16000806 -0.15383855 -0.09364002 -0.26444227
000070 18 38 56 be 45 92 3b be 94 97 9e 3d 95 90 ea bc
       -0.20919836 -0.18317516 0.07743755 -0.028633395
000080 42 38 52 be b9 0a 94 bc 71 57 44 3d 4b e8 f5 3d
       -0.20529273 -0.01807152 0.047934953 0.12007197
000090 a4 0f 19 3e 46 98 a8 bc 95 3f 04 3d 8d e9 ea bc
       0.14947373 -0.020580422 0.0322872 -0.028675819
0000a0 26 dd 16 3e 66 69 50 3e 7c d7 08 3e 91 06 d4 3c
       0.14732799 0.20352706 0.13363451 0.025882037
0000b0 fd 03 0b 3d 18 49 af bd db fa 72 3d 09 f8 b9 3d
       0.03393935 -0.085588634 0.059321266 0.09080512
0000c0 52 7e 55 3c 3e 63 2a 3e c8 1a b5 bc fd 1c 0c be
       0.013030605 0.1663942 -0.022107497 -0.13682933
0000d0 ac 3b 31 be 47 b8 31 be 9a b1 fe bd cf f0 f2 3d
       -0.1730792 -0.17355452 -0.124362186 0.11862337
0000e0 1a 47 9c bd b3 6c 7f bb 96 b9 8a bd c5 ab c2 3d
       -0.07630749 -0.0038974702 -0.06773679 0.09505419
0000f0 32 f8 00 bb b0 72 e5 bc 56 a1 8b bd 8e 4a c7 3d
       -0.0019679186 -0.028008789 -0.06817882 0.09731017
000100 ed 71 c9 3d 5b 9f 0c 3c 07 8a 66 3d d4 61 f8 3d
       0.09836183 0.008582915 0.056283977 0.12128034
000110 19 c8 25 3e 79 ea 2d 3e d1 15 bb 3d f9 ea ea 3d
       0.16189612 0.16983975 0.091350205 0.11470599
000120 be 03 cb 3d be ff 83 3b 44 47 63 3d 54 3d 58 bd
       0.09912823 0.0040282896 0.055487886 -0.052792862
000130 ca 1a 3d bc e2 fa b0 bd a9 a5 cf bd 8a da ff bd
       -0.011542032 -0.08641602 -0.10139019 -0.12492855
000140 ac 6d 13 be a6 b3 23 be d8 4a d3 bd 70 05 09 be
       -0.14397305 -0.15986499 -0.1031701 -0.1338098
000150 66 28 f4 bd df 25 20 3d 97 a7 01 3b 44 7a 6f bd
       -0.11921768 0.039098617 0.001978373 -0.05846621
000160 38 06 e4 bd a5 9e ee b9 a5 80 9e bd e9 a2 9f bd
       -0.11133999 -0.00045513097 -0.07739381 -0.077947445
000170 85 51 80 bb f9 7c 1a be 33 91 01 bd c6 86 86 3d
       -0.003915968 -0.15086736 -0.031632613 0.06568675
000180 41 3f 90 bd 61 d9 e2 bd 0b ea 3e be bf 1c a2 bd
       -0.07043315 -0.11076618 -0.18643968 -0.07915639
000190 86 d9 02 3c 43 42 75 bd 5c ae e7 37 ac 37 72 bd
       0.007986432 -0.059877645 2.7618538e-05 -0.059135124
0001a0 1f 16 c3 3b fc 12 df bd 24 c2 25 be fe e0 2e bc
       0.005953565 -0.10892293 -0.1618734 -0.0106737595
0001b0 55 9a 5a bc f4 a0 45 bd 24 6b 92 3d 03 97 e2 bd
       -0.01334246 -0.0482492 0.07149342 -0.110639594
0001c0 70 31 bd bd 96 c7 55 bd 41 1b d9 bd bb 79 0c 3e
       -0.09237945 -0.052192293 -0.106009014 0.13718311
0001d0 55 68 4e bd f4 e4 c5 bd 1f 91 be bd 04 c7 b0 3d
       -0.050392468 -0.0966281 -0.093050234 0.08631709
0001e0 6c be c4 3d 1e 9b e7 bd ac da 59 be 80 79 62 be
       0.096066326 -0.11308883 -0.21274823 -0.22116661
0001f0 34 88 f0 bd ae 42 ed 3d de dc 19 3c 67 19 7b 3d
       -0.11744729 0.11584984 0.009391038 0.061303522
000200 97 d1 a6 3d ca e7 90 3d 4a b9 41 3e db b0 38 bd
       0.08145445 0.0707546 0.18918338 -0.045090538
000210 a5 6a c6 bc 00 aa 6e bc 9f 6f 0b 3d 32 5b a0 3d
       -0.024220774 -0.014566898 0.034041997 0.07829894
000220 ed 00 b4 3d 07 7a b5 bc 4f d8 09 3d a0 0b f2 3d
       0.08789239 -0.022152914 0.033653554 0.118186235
000230 f6 8b 33 3e a5 f6 2f 3e 00 57 33 3c 7c f0 8a 3b
       0.1753386 0.17183931 0.010946035 0.0042400938
000240 22 ec 13 3d be 1f ff 3d 31 10 1a 3b f1 5c b5 bb
       0.036113866 0.12457226 0.0023508186 -0.005534761
000250 fa 70 c1 3d c0 4a d9 3d b0 95 4e be a7 92 8a be
       0.09445377 0.106099606 -0.20174289 -0.27065012
000260 61 fb 5f be b9 3e 08 be 84 1c 91 bd a9 de 40 be
       -0.21873237 -0.13305177 -0.07085517 -0.18834938
000270 7a 33 5b be e9 9c 01 be 66 c8 1d bd 89 42 96 bd
       -0.21406356 -0.12657513 -0.038521193 -0.07336909
000280 57 d5 2e 3d 1c 7f 7a 3d 18 8b af 3d 48 a7 a5 3d
       0.042683925 0.061156377 0.08571452 0.08088547
000290 bb 92 d7 bc 50 f9 28 3e 76 c2 f9 3d cd 7a 40 3c
       -0.026315084 0.16501355 0.121952936 0.011748028
0002a0 f1 73 9e 3d 5b 2a 81 3d 15 c6 3f 3e 56 40 2f 3e
       0.07736958 0.06306907 0.18727906 0.17114386
0002b0 ec 09 68 3e 68 90 2a 3e 6b 44 ed bc e4 81 1a be
       0.22660035 0.16656649 -0.028963288 -0.15088612
0002c0 06 a5 34 be 43 77 f0 bd 62 8d ae bd 23 09 1c bd
       -0.17641076 -0.11741497 -0.085230604 -0.03809465
0002d0 33 da 20 be 28 bc 55 be c1 b6 78 bd ee f1 fe bd
       -0.15708236 -0.20872557 -0.060721163 -0.12448488
0002e0 62 5f 14 3d 38 dc 6f bd 93 33 7b 3d 0b 54 ef bc
       0.036223777 -0.058559626 0.061328482 -0.02921488
0002f0 c6 e9 49 3d 46 b1 ef bd 07 d4 b9 3d 96 c9 45 3e
       0.04929521 -0.11703734 0.09073644 0.1931518
000300 98 d2 59 3e e7 01 3e 3e 84 07 90 3d a2 d4 37 3e
       0.21271741 0.18555413 0.070326835 0.17952207
000310 2f e5 d1 3d ea 65 52 3e bb 2c 41 3e f3 7a 90 3b
       0.102487914 0.2054669 0.1886472 0.004409188
000320 db e1 ec bd be 82 32 be 28 62 27 bd 0d 90 9c bd
       -0.11566516 -0.17432687 -0.040865093 -0.07644663
000330 c3 9e 59 bd a6 bb f5 bd 8a cd 60 be 74 42 df bd
       -0.053129923 -0.11998682 -0.21953407 -0.10901347
000340 66 d1 70 bd d4 6e 82 3c 6a 2d 76 bd 71 64 c7 3d
       -0.058793448 0.015921988 -0.060101904 0.097359546
000350 cf 1e 86 bd 2a 5c 65 3d ce 04 07 bd 02 2c f8 3b
       -0.06548845 0.055996098 -0.032963566 0.0075736055
000360 fc b5 fb 3d db 12 79 3d 02 05 2a 3e b5 d9 02 3d
       0.1229057 0.060808998 0.16603473 0.031945903
000370 0b 7c f2 3d 59 b7 2d 3e f8 de 02 3e d4 24 2e 3d
       0.118400656 0.16964473 0.12780368 0.04251559
000380 c6 ec 28 3d 3a 65 88 3c 63 db 2d be d5 7f c5 bd
       0.04124143 0.016649831 -0.1697822 -0.09643523
000390 18 4c 08 be b6 e1 1f 3c bf f9 60 bd 58 9c 1f be
       -0.13310277 0.0097584035 -0.054925676 -0.15586984
0003a0 c2 06 55 be a7 c3 c5 ba d2 2c 6a 3d cb 3c 1e be
       -0.20803359 -0.0015088216 0.05717165 -0.15452878
0003b0 64 c4 09 be 35 46 60 3c a3 8d a0 bd 0e 73 1b 3e
       -0.13453823 0.013688614 -0.07839515 0.15180609
0003c0 b0 00 25 bc 10 9d 1f be 6c 87 dd bd 50 03 4a 3d
       -0.010070965 -0.15587258 -0.10816845 0.049319565
0003d0 b9 2c 19 3e 35 6c b4 3c 32 df 48 bd ee c0 d1 3d
       0.14958467 0.022024253 -0.04904098 0.102418765
0003e0 e5 e8 48 3e ac 0e 76 3e 6d a2 95 bd d1 74 00 be
       0.19620092 0.24029034 -0.07306371 -0.12544562
0003f0 f9 91 9d bd a0 89 e1 bc 0e a4 3b 3e 15 4a bf bd
       -0.07693858 -0.027531445 0.183243 -0.09340302

conv1.bias f4 [16]
000000 83 f5 79 3e 60 c4 ed bc 10 d7 31 bd 2a 29 64 3e
       0.24410062 -0.029024303 -0.04341799 0.22281328
000010 43 fb c6 3d 84 f2 c1 3e 7d ef e9 3d ed 4c 88 3e
       0.09715893 0.37880337 0.11422632 0.2662119
000020 fb ef 0a 3e 23 60 e2 3d 95 5b 8e 3d 6b 65 81 3e
       0.13568108 0.11053493 0.06951062 0.25272688
000030 69 db 03 3e 94 36 ae 3c 8a 1e 97 3e 6c 0a 04 3e
       0.12876667 0.02126626 0.29515487 0.128946

conv2.weight f4 [32, 16, 3, 3]
000000 db 18 a0 be eb a6 34 be 96 00 35 bd 62 5e b6 bd
       -0.31268963 -0.17641799 -0.044190012 -0.08904721
000010 84 a5 82 b8 46 67 ac 3d 33 ba 07 3e 85 a0 3b 3e
       -6.229713e-05 0.08418135 0.13254623 0.18322952
000020 01 cb ba 3d 5f ea 97 bd 0a 55 86 bd e2 f8 23 3c
       0.09120751 -0.074177496 -0.06559189 0.010008069
000030 66 b9 cf 3b e2 0e e4 bc 62 a7 7d 3d ef 49 26 3d
       0.00633924 -0.027839128 0.061927207 0.040597852
000040 af 04 42 bc 75 99 be bc 27 67 b2 bd c7 34 aa bd
       -0.011841937 -0.023266533 -0.08711081 -0.08310848
000050 93 f1 5b bd fd 84 54 bd fd 05 03 3d 85 74 ba 3d
       -0.05369718 -0.05188464 0.031988133 0.091042556
000060 6b 57 d6 3c e1 4a 42 3d 80 a6 ea bc 83 03 42 bc
       0.026164731 0.04743469 -0.028643847 -0.011841658
000070 64 d9 3d bd 85 9f a1 3d bc 1c 3d 3a 14 24 2d bc
       -0.046349898 0.07891754 0.00072140596 -0.010567684
000080 21 80 e5 3d 81 49 a4 3d 37 50 c5 3d d3 3e 86 bc
       0.11206079 0.08021832 0.096344404 -0.016387379
000090 a0 d2 11 be fe bd 8c bd e6 cd 98 3d 5e c1 ad bc
       -0.14240503 -0.06872176 0.07461147 -0.021210369
0000a0 7d 92 09 3d 0f d4 d9 3d ef 50 ac 3c b2 ea fb bd
       0.033586968 0.1063615 0.021034686 -0.12300624
0000b0 b1 26 ea 3c 9c 2f e0 bd 68 e0 28 be 10 eb 18 be
       0.028582903 -0.10946581 -0.16491854 -0.14933419
0000c0 c4 ad bd bd 7c 75 29 3d 2b 60 be 3d 82 ab 5a 3d
       -0.09261659 0.041371807 0.09295686 0.05338622
0000d0 54 58 05 3e 57 24 20 3e 70 49 80 be 0a 2c a4 be
       0.13021976 0.15638863 -0.25056028 -0.3206485
0000e0 2e 3f 02 be 59 59 04 bd 25 91 aa 3d b8 35 13 3e
       -0.12719414 -0.03231177 0.08328465 0.14375961
0000f0 dc 39 d8 3d 82 c3 f6 3d 0a f2 c0 3d d1 6e 46 3e
       0.10557911 0.12049009 0.09421165 0.1937821
000100 2c 9d ad 3d c1 ae f9 3d de 5e 14 bd 99 12 9b bd
       0.08477244 0.12191535 -0.036223285 -0.075719066
000110 3b ca 93 bc ce 96 d6 3d ff 81 70 bd 8e fb 57 3d
       -0.018040767 0.104779825 -0.058717724 0.052730136
000120 03 44 06 3d bd a8 d7 3d 16 ae 2b 3d 7e b0 89 bd
       0.032779705 0.10530231 0.04191407 -0.06723116
000130 2a a1 38 be 88 f5 53 bd 08 ae dd bd 15 f3 39 3b
       -0.18030229 -0.05174783 -0.108242095 0.0028373648
000140 67 c2 c1 bc 5f 3f 96 3d 11 ee 61 bd fc 3b 8a bc
       -0.023652269 0.07336306 -0.05515868 -0.016874306
000150 47 9c b9 3d 2d 9a 2b bd 50 21 1f be 8d 06 75 bc
       0.09063011 -0.04189508 -0.15540051 -0.014955175
000160 2a ce 36 3c 7f c0 b8 bd bd 2e 00 be 67 20 a4 bc
       0.011157552 -0.09021091 -0.12517829 -0.020034982
000170 ad 40 15 bd 49 37 a3 3c 1f c0 92 bd 1d d4 09 be
       -0.036438633 0.019923823 -0.071655504 -0.13459821
000180 f1 27 5c 3c 79 71 6b bd 0d 04 38 be 47 15 4c 3d
       0.013437257 -0.057481263 -0.17970295 0.04982498
000190 34 a3 ee 3d 16 58 e0 3c e1 e7 a3 3d 8e d0 4f 3d
       0.11652222 0.027385753 0.08003212 0.050736003
0001a0 c3 73 8e bd 22 91 3a 3b 66 81 1d bc 8a 75 c6 bd
       -0.069556735 0.0028467854 -0.0096133705 -0.096903875
0001b0 a1 c4 19 be c5 ab eb bd 88 b1 d1 bc c5 25 f6 3c
       -0.15016414 -0.11507372 -0.025597349 0.030047307
0001c0 64 eb 2f bd dc 8b 60 3d b8 36 7b bc 89 fd 6d bd
       -0.042949095 0.05482088 -0.01533287 -0.058103118
0001d0 42 83 24 bc d4 64 d4 bd 82 07 ba bd 7f 2d 09 3e
       -0.01004106 -0.10370794 -0.09083463 0.13396262
0001e0 bc 1c 06 3e e4 ff d6 3d fe e9 cb 3d ff 35 e9 3c
       0.13096899 0.10498026 0.0995674 0.02846813
0001f0 b7 ad 70 bd b2 30 f7 bd e5 2f 7e 3e 88 5c a2 3d
       -0.058759417 -0.12069835 0.24822958 0.07927805
000200 99 54 05 3e 3e a4 34 bb 84 ee 8c bd 27 fb 25 be
       0.13020553 -0.0027563716 -0.06881431 -0.16209088
000210 3a a8 24 be be 7f 73 be e5 f2 7b be 7b 4c e4 3c
       -0.16079798 -0.23779199 -0.24604376 0.0278685
000220 1e 3b 83 bd 7d de 16 3d 76 30 a2 3a 96 42 98 3c
       -0.0640776 0.036833275 0.0012374062 0.018586438
000230 08 ea f4 3d ee 70 0e bd 2e 9f 64 bd 76 5d 40 3d
       0.119587004 -0.034775667 -0.055815868 0.04696413
000240 23 d8 3d bd e8 13 c9 bd 14 74 d6 bd be 32 9c 3d
       -0.046348702 -0.0981825 -0.10471359 0.07626866
000250 80 4c 92 3d 7d 9c 4a bd 34 38 be 3c 71 89 18 bd
       0.071434975 -0.049465645 0.02322016 -0.03724045
000260 a2 fd a8 bd 0b b9 8a bc ac bd 8e bd 24 50 15 bd
       -0.082515016 -0.016933938 -0.06969771 -0.03645338
000270 ea c8 71 bd f5 92 e6 3c 61 ef b7 3c ea 47 c4 bb
       -0.059029497 0.028146246 0.022453012 -0.005990018
000280 eb 34 d0 bd 04 9b 72 bd f5 b7 ad be a2 70 a8 be
       -0.10166343 -0.059229866 -0.3392941 -0.32898432
000290 3c 15 17 be 70 07 ce 3d 36 7d ac 39 90 e6 4a bd
       -0.14754194 0.10060012 0.00032899686 -0.049536288
0002a0 c6 d7 b1 bd e5 8e 0c 3d f0 96 00 3e c1 03 24 bc
       -0.08683734 0.034315962 0.12557578 -0.010010661
0002b0 44 95 9e 3d c3 65 c2 3d cd 0c 87 bc 76 88 be 3d
       0.07743314 0.09492066 -0.016485596 0.093033716
0002c0 2c cf cc bc 15 a7 2e be 44 f1 66 bd e9 0b db bd
       -0.025001131 -0.17055924 -0.056382433 -0.10695631
0002d0 95 16 59 bd 0f f1 14 3d e8 79 e1 bc 12 62 4f bd
       -0.05300005 0.036362704 -0.02752395 -0.050630637
0002e0 22 d0 a1 3d 9f 8d c3 bc 23 d3 58 3c 3e 92 05 be
       0.07901026 -0.023871241 0.013233933 -0.13044068
0002f0 d2 86 17 be 0f 93 05 3c b4 4f 86 bd 04 f5 0f 3d
       -0.14797524 0.008152737 -0.06558171 0.035145774
000300 9b e6 90 3d 2f e9 14 bd 3f 39 43 3d de 31 20 3c
       0.070752345 -0.036355194 0.047662016 0.009777514
000310 96 29 81 3d 05 ed 32 bd ba 27 dd bc 43 30 6e bd
       0.0630676 -0.04368307 -0.026996482 -0.058151495
000320 d6 7d 07 3d eb 32 fb bc 72 a7 47 bd a0 ad 6e 3d
       0.03307899 -0.030663928 -0.048743673 0.05827105
000330 fb 38 53 3d 23 4b 13 bd d0 8b 4b 3d 8f ba 3a bc
       0.051568013 -0.035960328 0.049693882 -0.011397018
000340 c6 fb ad bc a1 2d ef 3c c2 0f 9c 3d 3a cc 51 bd
       -0.021238219 0.029196562 0.07620193 -0.051220156
000350 1d ec fb bd 06 51 58 bc 1b 60 21 be c8 3f 27 be
       -0.123008944 -0.013202911 -0.15759318 -0.16332924
000360 ba 20 c4 bd 8e e1 ac bd db a4 0d 3c 3e a7 47 bd
       -0.095765546 -0.08441459 0.008645262 -0.04874348
000370 b0 a8 1b be 76 9e e8 bd d6 aa a7 bd 7a 7d 50 bd
       -0.15201068 -0.11358349 -0.08186881 -0.050900914
000380 78 98 4c be bf c7 ee bc f5 35 2f bd ee 78 4b 3c
       -0.19980037 -0.02914798 -0.042776067 0.012418969
000390 0b 81 b0 3c b6 13 bf ba 58 c7 36 3d e2 7b e2 bd
       0.021545907 -0.0014578018 0.044623703 -0.11058785
0003a0 87 8c 31 be bb 42 e7 bd 7d 65 5f bd 30 40 cf bd
       -0.17338763 -0.11292025 -0.054540146 -0.10119665
0003b0 9d 6a 06 bd c6 64 79 bd 68 29 4a 3d f1 75 c5 3d
       -0.032816518 -0.06088712 0.049355894 0.09641636
0003c0 29 6b 6c be d7 15 3f be dd 69 1b be 4e 5e f2 bd
       -0.23087753 -0.18660675 -0.15177102 -0.118343934
0003d0 7d 5d f1 bd 7c 14 c5 bb 34 5b 39 bd 5c 8c 1c 3c
       -0.117854096 -0.006014405 -0.045252994 0.009554949
0003e0 67 60 d5 bd ab 58 a9 bd 4d 09 f1 bd db 68 2d bd
       -0.10418778 -0.08268865 -0.11769352 -0.042336326
0003f0 18 9e e0 3c 93 21 ef bd 91 67 29 bd 07 dd 13 3d
       0.027419135 -0.11676326 -0.041358534 0.03609946

conv2.bias f4 [32]
000000 06 ff b0 3d 61 32 9b bd de 88 8b 3e a9 db 69 3e
       0.08642392 -0.075779684 0.2725286 0.228377
000010 58 a8 25 3e 90 7d fb 3d 4a 22 5d 3d d1 6e 98 3d
       0.161775 0.122798085 0.05398778 0.074430116
000020 2a 41 93 3e 78 1a 04 3e 7f e5 60 3e e7 96 30 bd
       0.28760654 0.12900722 0.21962546 -0.04311266
000030 21 77 1f 3e 8c be 40 3e d2 11 ef 3d 65 49 a9 3d
       0.15572788 0.18822688 0.11673321 0.08265952
000040 ca c8 e7 3d 27 fd d0 3d ca 62 88 3e 0c 78 4c 3e
       0.11317594 0.10204535 0.2663787 0.19967669
000050 4a 9a 90 3c b0 3d 50 3e d1 00 98 3e 68 ec 35 3d
       0.017651696 0.20336032 0.29688123 0.044414908
000060 e4 52 8e 3e 50 6a 26 3e bc 5a 35 3e 31 5d 38 3e
       0.27797616 0.16251493 0.17710394 0.180043
000070 7b 53 83 3e eb 10 ef bc 4f ec 16 3e 0c 10 97 bb
       0.25649628 -0.029182872 0.14738582 -0.0046100672

fc.weight f4 [10, 2048]
000000 a5 72 33 3c 15 00 9c bc a1 0a b5 bb 6f a4 7f bb
       0.010952626 -0.019043008 -0.0055249487 -0.0039007922
000010 9e 33 79 3c f4 52 33 bd 06 cd 8b bd 28 5e 0d 3d
       0.01521006 -0.043780282 -0.068262145 0.034513623
000020 a7 12 20 bd 05 98 97 bc 96 7f 4a bd 92 5b 57 bd
       -0.03908029 -0.018505106 -0.04943808 -0.052577563
000030 49 3f 99 bd 7d 5a 64 bd 48 ad 3d bd 4e f8 47 3c
       -0.07482774 -0.05575036 -0.046307832 0.012205197
000040 f2 b2 9c bb dc 72 17 3d 3b 67 86 3d a9 fb 92 3d
       -0.004782074 0.036974773 0.065626584 0.071769066
000050 81 5f 07 be e8 b7 a7 3d 6c 32 16 bd 71 78 5e b9
       -0.13220026 0.08189374 -0.03666918 -0.00021216438
000060 70 62 6a 3d 63 1f 37 3c 91 90 ce 3d fb ee f1 3d
       0.057222784 0.011176917 0.100861676 0.1181316
000070 cf 1d 3b be 14 2a 6c bc ef 92 0e 3d 35 70 f9 3c
       -0.1827309 -0.014414329 0.034808096 0.030449012
000080 af a7 14 3d fc 69 af 3d c3 fa 05 3d b2 7b 76 bd
       0.036292728 0.08565137 0.032709848 -0.06017656
000090 00 e3 03 be 6f 78 ca bc d1 34 92 3d 4c cc 89 bc
       -0.12879562 -0.02471563 0.0713898 -0.01682105
0000a0 13 a0 cf 3c 57 b2 29 bb 56 be 9c bc 46 10 51 bc
       0.025344884 -0.0025893652 -0.019133728 -0.012760228
0000b0 fb bd 28 bc 1e 03 cd 3c d4 1b 81 3d 4c 32 8e 3c
       -0.010299201 0.0250259 0.06304136 0.017357968
0000c0 b1 bc 26 3d 43 6b 67 bb 6e a3 b5 bc 5c f5 78 3c
       0.040707294 -0.0035311736 -0.022172656 0.015195217
0000d0 5b 16 70 3d 43 19 2c 3d e7 72 9d 3c c9 29 09 3d
       0.05861507 0.04201628 0.019219829 0.033487115
0000e0 96 08 fa bc 12 a0 a4 bb 1e a9 3e bb ff 73 74 3d
       -0.030521672 -0.0050239647 -0.00290925 0.059680935
0000f0 f2 22 15 3d a6 a3 83 bc 63 b3 9a 3c 0f 4a 82 bb
       0.03641028 -0.016069245 0.018884366 -0.0039761136
000100 72 ab 16 bd 1c 73 d2 bd c9 4a cf bd cd 82 2d 3d
       -0.036784597 -0.102758616 -0.10121686 0.04236107
000110 99 a7 4e 3c 0d 5e d3 3d 3e fc 1e bd 04 34 c1 bc
       0.012613201 0.10320673 -0.038814776 -0.023584373
000120 7d 95 24 3b 0f 00 c9 3c 0b 6f 3c 3c 52 8e 56 ba
       0.0025113516 0.02453616 0.011501084 -0.00081846595
000130 3d 33 ce bb f3 c7 80 3b 8b 27 a2 bb 39 f7 ff ba
       -0.006292729 0.003930086 -0.0049485615 -0.0019528634
000140 59 6a 68 bc 01 da a4 3c c8 e6 cb 3c 85 49 41 ba
       -0.0141855115 0.020123484 0.024890319 -0.0007373321
000150 ff 64 6d bb e9 58 6d 3c 2a 2d eb bb 94 18 f7 3b
       -0.0036223528 0.01448653 -0.007177015 0.0075407717
000160 a3 e7 f2 bb b3 4f e1 bb 90 37 ef ba 27 9f ba 3c
       -0.007412867 -0.006875956 -0.0018250812 0.022780968
000170 e6 48 cf 3c 11 5b 10 3c e1 64 97 3c ee bf cc 3c
       0.025303315 0.008810774 0.01848072 0.024993863
000180 f6 ee 96 bb a1 17 2f bc 2c fe 09 3c 45 99 91 3b
       -0.004606123 -0.010686786 0.008422416 0.00444332
000190 a7 77 04 bc 02 15 81 bc ba 20 55 bc fe 42 fd bb
       -0.008085168 -0.015757088 -0.013008291 -0.0077289334
0001a0 a6 fb 07 3c 09 d8 33 3c f1 fd 65 3c 0f 53 1b 3c
       0.008299744 0.0109768 0.014037595 0.009480252
0001b0 a1 5f cf 3c 96 db 64 b8 64 47 e3 3c 69 d7 1f 3c
       0.025314154 -5.456394e-05 0.027744003 0.009755948
0001c0 b8 03 2a bc 1d 6f 79 bc 2a 48 0b bc 13 6e 1a bb
       -0.010376863 -0.015224245 -0.008501092 -0.0023564145
0001d0 9f e2 d4 3a 7b cb 48 3c 75 95 8b 3c fd f3 54 bc
       0.0016241855 0.012255545 0.01703904 -0.012997624
0001e0 b2 49 4e 3d b7 3c 84 3d c1 58 05 3e cd 59 d1 3d
       0.05036325 0.06456893 0.13022138 0.10222206
0001f0 9a 88 a7 bc ef e6 2c bc 9b 3d 6a bd 69 41 6c bd
       -0.020450879 -0.010553106 -0.057187658 -0.057679567
000200 e5 32 59 3d d7 84 aa bd 5a 8c 16 3d 06 b3 1e bb
       0.053027052 -0.083261184 0.036754943 -0.0024215593
000210 45 cf b3 bd f7 ac ae 3d f0 f2 82 3d e2 b0 1b bd
       -0.08779768 0.08529084 0.06393993 -0.038010485
000220 1b 7f bd 3b 0b 8f 5c 3d 65 74 d8 3d ea b1 09 3d
       0.0057829744 0.053847354 0.105690755 0.033616938
000230 8b 4d 24 be 41 4e b4 bc 23 df 16 bd a4 b7 90 bc
       -0.16045205 -0.02200997 -0.036833894 -0.017665692
000240 78 2e a9 38 ee dd b9 3c e7 e4 65 3c 69 12 7f bb
       8.0672035e-05 0.022688832 0.014031625 -0.0038920885
000250 1b 3b af 3b ef 0d 17 bd 9f b9 24 bd 84 36 97 bc
       0.005347622 -0.036878522 -0.040216085 -0.018458612
000260 b8 b4 69 3c 54 69 d7 3c 0b de 24 bd 24 09 73 3d
       0.014264278 0.026295342 -0.04025082 0.05933489
000270 7b d3 77 3d 29 22 84 3d 79 fb 2c 3d 23 d1 6b bd
       0.060504418 0.06451828 0.04223201 -0.057572495
000280 d1 d0 17 3d be eb a1 3c 85 0c 11 3c 24 cb f3 3d
       0.037064377 0.019765731 0.008853083 0.119039804
000290 03 1b 87 3d 1c c3 91 3b 93 e1 3b bd 91 da d4 bc
       0.06596949 0.0044483077 -0.04586942 -0.025983127
0002a0 3a b4 c7 bc 32 7a da 3c 9d ce 8c bc 56 95 ec 3d
       -0.02437793 0.026669595 -0.017188365 0.11551921
0002b0 09 fa 9e 3d a6 41 84 3d 36 f8 0b bd d0 39 53 bc
       0.07762534 0.06457834 -0.03417226 -0.012892202
0002c0 93 19 33 bc fe 3e 8f 3d 9f 7b c5 bd e2 2e 24 bd
       -0.01093139 0.06994437 -0.096427195 -0.040083773
0002d0 0c ce 15 3e 1a 87 f7 3c 90 96 0f 3b 2e 29 6a 3d
       0.14629382 0.030215789 0.002190981 0.05716818
0002e0 8f d3 95 3c 1b ac 02 3e a7 c9 1f 3d 33 98 ca 3c
       0.018289356 0.12760966 0.03901067 0.024730777
0002f0 61 b6 bc 3d d0 44 9d 3c c3 54 ac bd 89 82 11 bd
       0.092144735 0.019197851 -0.084146045 -0.03552488
000300 c6 c4 90 bc 08 bb a7 3b 38 1a 74 bd 06 40 97 3d
       -0.017671954 0.0051187314 -0.059595317 0.073852584
000310 a8 ed e4 3d 1f 4a 30 3d 0e e9 8b 3c 9e 3e 81 3c
       0.11178142 0.043039437 0.017078903 0.015776929
000320 83 c5 a9 ba 99 92 6e 3d d0 6e 7e bd d9 d6 0c 3d
       -0.001295254 0.058245275 -0.062117398 0.034384582
000330 f8 0d 36 3e 94 cb 05 3e 6b a5 d9 3d ab 8d 95 3d
       0.17778766 0.1306594 0.10627254 0.07302412
000340 29 4d e3 3c 6d 9e 16 bc 30 83 07 bd 7a f2 bc 3c
       0.027746754 -0.009193045 -0.033084095 0.02306484
000350 75 3f 6d bd ab d3 bb 3c cf 2f 16 3d 33 8f be 3d
       -0.057921845 0.02292808 0.036666688 0.09304657
000360 63 2a 29 bb ec 2b a2 bb 69 33 f2 3b 25 65 1d 3e
       -0.0025812618 -0.0049490836 0.0073913825 0.15370615
000370 91 99 e8 bd 50 b2 b9 3b 6e ea d3 bc 53 2a 7d 3c
       -0.113574155 0.0056670085 -0.02586862 0.015451985
000380 f0 8e 48 3c fa a8 52 bd 62 8c 93 bc f5 9b b2 bc
       0.01224111 -0.05143068 -0.018011276 -0.021802882
000390 48 02 13 be 1e 76 c5 3b b7 a7 85 3d 2a 02 09 3e
       -0.14356339 0.0060260436 0.0652613 0.13379732
0003a0 e2 ac 0b 3d a7 bf 39 bb 90 f4 9c 3d 56 01 42 bc
       0.03410042 -0.0028342993 0.07663834 -0.011841139
0003b0 3f 17 2c be bd d6 d6 bd cd 4b 8d 3d 49 0a 9a 3d
       -0.16805743 -0.10490177 0.068992235 0.07521493
0003c0 7e b1 63 3c 70 f5 85 3d ed 3f b7 3d 75 85 32 be
       0.013897298 0.06540954 0.0894774 -0.17433722
0003d0 a2 b1 2f be a0 bd 33 bd c0 c2 db 3d 8c d9 8e 3d
       -0.17157605 -0.043882012 0.10730505 0.069750875
0003e0 6f 5d b4 3c e4 5f 5f 3d ce 39 24 3d fe 1b 1f b9
       0.022017209 0.054534808 0.04009419 -0.0001517385
0003f0 01 3e c3 bd e5 e6 bb bd 72 04 32 bd a0 48 8b bc
       -0.09533311 -0.09174899 -0.04346127 -0.017002404

fc.bias f4 [10]
000000 e7 a5 11 3c f9 87 b0 3d 68 2e 19 bd d5 f7 71 bd
       0.008889652 0.08619685 -0.037397772 -0.05907424
000010 ce 64 5d bb 6f 61 bb bc f7 71 4e bd 25 a5 c5 bc
       -0.0033782008 -0.022873608 -0.050401654 -0.024126599
000020 2c 78 97 3c 2b 8c e8 3a
       0.01848992 0.0017741969
